…
	td_det_cfg_file='COCO-Detection/faster_rcnn_X_101_32x8d_FPN_3x.yaml',
	td_det_threshold=0.05,
	td_det_weights='./packages/Model/Detector_model/model_final_68b088.pkl',
	td_feat_ratio=[0.1,
	0.2,
	0.3,
	0.4],
	td_lmbda_feat=32,
	total_iter=2000000,
	train_set='/data1/datasets/Imagenet',
	transform_channels=[128,
	128,
	128,
	192],
	vbr_training=False,
	visualize_bit_allocation='',
	world_size=-1)
building extrctor & adapter ... building feature compression model ... 
CodingNet(
  (entropy_bottleneck): EntropyBottleneck(
    (likelihood_lower_bound): LowerBound()
  )
  (g_a): Sequential(
    (0): ResidualBlock(
      (conv1): Conv2d(128, 128, kernel_size=(3, 3), stride=(1, 1), padding=(1, 1))
      (leaky_relu): LeakyReLU(negative_slope=0.01, inplace=True)
      (conv2): Conv2d(128, 128, kernel_size=(3, 3), stride=(1, 1), padding=(1, 1))
    )
    (1): ResidualBlockWithStride(
      (conv1): Conv2d(128, 128, kernel_size=(3, 3), stride=(2, 2), padding=(1, 1))
      (leaky_relu): LeakyReLU(negative_slope=0.01, inplace=True)
      (conv2): Conv2d(128, 128, kernel_size=(3, 3), stride=(1, 1), padding=(1, 1))
      (gdn): GDN(
        (beta_reparam): NonNegativeParametrizer(
          (lower_bound): LowerBound()
        )
        (gamma_reparam): NonNegativeParametrizer(
          (lower_bound): LowerBound()
        )
      )
      (skip): Conv2d(128, 128, kernel_size=(1, 1), stride=(2, 2))
    )
    (2): ResidualBlock(
      (conv1): Conv2d(128, 128, kernel_size=(3, 3), stride=(1, 1), padding=(1, 1))
      (leaky_relu): LeakyReLU(negative_slope=0.01, inplace=True)
      (conv2): Conv2d(128, 128, kernel_size=(3, 3), stride=(1, 1), padding=(1, 1))
    )
    (3): Conv2d(128, 128, kernel_size=(3, 3), stride=(2, 2), padding=(1, 1))
  )
  (g_s): Sequential(
    (0): ResidualBlock(
      (conv1): Conv2d(128, 128, kernel_size=(3, 3), stride=(1, 1), padding=(1, 1))
      (leaky_relu): LeakyReLU(negative_slope=0.01, inplace=True)
      (conv2): Conv2d(128, 128, kernel_size=(3, 3), stride=(1, 1), padding=(1, 1))
    )
    (1): ResidualBlockUpsample(
      (subpel_conv): Sequential(
        (0): Conv2d(128, 512, kernel_size=(3, 3), stride=(1, 1), padding=(1, 1))
        (1): PixelShuffle(upscale_factor=2)
      )
      (leaky_relu): LeakyReLU(negative_slope=0.01, inplace=True)
      (conv): Conv2d(128, 128, kernel_size=(3, 3), stride=(1, 1), padding=(1, 1))
      (igdn): GDN(
        (beta_reparam): NonNegativeParametrizer(
          (lower_bound): LowerBound()
        )
        (gamma_reparam): NonNegativeParametrizer(
          (lower_bound): LowerBound()
        )
      )
      (upsample): Sequential(
        (0): Conv2d(128, 512, kernel_size=(3, 3), stride=(1, 1), padding=(1, 1))
        (1): PixelShuffle(upscale_factor=2)
      )
    )
    (2): ResidualBlock(
      (conv1): Conv2d(128, 128, kernel_size=(3, 3), stride=(1, 1), padding=(1, 1))
      (leaky_relu): LeakyReLU(negative_slope=0.01, inplace=True)
      (conv2): Conv2d(128, 128, kernel_size=(3, 3), stride=(1, 1), padding=(1, 1))
    )
    (3): ResidualBlockUpsample(
      (subpel_conv): Sequential(
        (0): Conv2d(128, 512, kernel_size=(3, 3), stride=(1, 1), padding=(1, 1))
        (1): PixelShuffle(upscale_factor=2)
      )
      (leaky_relu): LeakyReLU(negative_slope=0.01, inplace=True)
      (conv): Conv2d(128, 128, kernel_size=(3, 3), stride=(1, 1), padding=(1, 1))
      (igdn): GDN(
        (beta_reparam): NonNegativeParametrizer(
          (lower_bound): LowerBound()
        )
        (gamma_reparam): NonNegativeParametrizer(
          (lower_bound): LowerBound()
        )
      )
      (upsample): Sequential(
        (0): Conv2d(128, 512, kernel_size=(3, 3), stride=(1, 1), padding=(1, 1))
        (1): PixelShuffle(upscale_factor=2)
      )
    )
    (4): ResidualBlock(
      (conv1): Conv2d(128, 128, kernel_size=(3, 3), stride=(1, 1), padding=(1, 1))
      (leaky_relu): LeakyReLU(negative_slope=0.01, inplace=True)
      (conv2): Conv2d(128, 128, kernel_size=(3, 3), stride=(1, 1), padding=(1, 1))
    )
  )
  (h_a): Sequential(
    (0): Conv2d(128, 128, kernel_size=(3, 3), stride=(1, 1), padding=(1, 1))
    (1): LeakyReLU(negative_slope=0.01, inplace=True)
    (2): Conv2d(128, 128, kernel_size=(3, 3), stride=(1, 1), padding=(1, 1))
    (3): LeakyReLU(negative_slope=0.01, inplace=True)
    (4): Conv2d(128, 128, kernel_size=(3, 3), stride=(2, 2), padding=(1, 1))
    (5): LeakyReLU(negative_slope=0.01, inplace=True)
    (6): Conv2d(128, 128, kernel_size=(3, 3), stride=(1, 1), padding=(1, 1))
    (7): LeakyReLU(negative_slope=0.01, inplace=True)
    (8): Conv2d(128, 128, kernel_size=(3, 3), stride=(2, 2), padding=(1, 1))
  )
  (h_s): Sequential(
    (0): Conv2d(128, 128, kernel_size=(3, 3), stride=(1, 1), padding=(1, 1))
    (1): LeakyReLU(negative_slope=0.01, inplace=True)
    (2): Sequential(
      (0): Conv2d(128, 512, kernel_size=(3, 3), stride=(1, 1), padding=(1, 1))
      (1): PixelShuffle(upscale_factor=2)
    )
    (3): LeakyReLU(negative_slope=0.01, inplace=True)
    (4): Conv2d(128, 192, kernel_size=(3, 3), stride=(1, 1), padding=(1, 1))
    (5): LeakyReLU(negative_slope=0.01, inplace=True)
    (6): Sequential(
      (0): Conv2d(192, 768, kernel_size=(3, 3), stride=(1, 1), padding=(1, 1))
      (1): PixelShuffle(upscale_factor=2)
    )
    (7): LeakyReLU(negative_slope=0.01, inplace=True)
    (8): Conv2d(192, 256, kernel_size=(3, 3), stride=(1, 1), padding=(1, 1))
  )
  (gaussian_conditional): GaussianConditional(
    (likelihood_lower_bound): LowerBound()
    (lower_bound_scale): LowerBound()
  )
  (entropy_parameters): Sequential(
    (0): Conv2d(512, 426, kernel_size=(1, 1), stride=(1, 1))
    (1): LeakyReLU(negative_slope=0.01, inplace=True)
    (2): Conv2d(426, 341, kernel_size=(1, 1), stride=(1, 1))
    (3): LeakyReLU(negative_slope=0.01, inplace=True)
    (4): Conv2d(341, 256, kernel_size=(1, 1), stride=(1, 1))
  )
  (context_prediction): MaskedConv2d(128, 256, kernel_size=(5, 5), stride=(1, 1), padding=(2, 2))
)

building task model ... building task done.
Evaluation: [Epoch-Iteration/All]:[None-1/14786]	dist_loss: 0.9826	bpp_loss: 2.5604	loss: 1008.7737
